banking_cnn_autoencoder.pt (torch, 921835 bytes, 36 tensors)

enc.0.weight f4 [32, 4, 5]
0	0x3e20d4c8	0.1570617
1	0x3ebeeb98	0.3728912
2	0xbd0d541f	-0.034504052
3	0x3ea16e69	0.3152955
4	0x3b93299c	0.004491044
5	0x3e0de26e	0.13855907
6	0xbc3230ec	-0.010875922
7	0x3e061bcd	0.13096543
8	0x3d029ada	0.03188596
9	0xbe38b8eb	-0.1803929
10	0x3e2b1fba	0.16711321
11	0x3c78371a	0.015149856
12	0x3de22b84	0.11043456
13	0xbd31324d	-0.04326086
14	0xbc8f2f4a	-0.017478604
15	0x3d7c653f	0.061619993
16	0x3dec8c18	0.11550158
17	0x3d806637	0.06269496
18	0x3d3ebff6	0.046569787
19	0x3d3bfb93	0.045894217
20	0xbdb8ef12	-0.09029974
21	0xbcfc7cb7	-0.030821187
22	0xbddacdb5	-0.10683767
23	0x3d946e61	0.072476156
24	0xbdf87408	-0.12131506
25	0xbe043d55	-0.12914021
26	0xbd9df647	-0.07712989
27	0xbe0ac25d	-0.13550706
28	0xbd7ac0b7	-0.061218943
29	0xbedbe344	-0.42946827
30	0x3e0c9dd1	0.13732077
31	0xbe233df3	-0.159416
32	0x3e0fbac7	0.14036094
33	0x3d75092b	0.059823196
34	0xbdcff809	-0.10154731
35	0x3e08c086	0.13354692
36	0x3d9749f2	0.07387151
37	0x3db2bc9f	0.08727383
38	0x3e0552fc	0.13019937
39	0xba821c13	-0.000992658
40	0x3cb70003	0.022338873
41	0xbdc56f1e	-0.096403345
42	0x3e845dec	0.25852907
43	0x3ed851a7	0.42249796
44	0x3eb44c09	0.3521426
45	0xbdcd05d4	-0.10010877
46	0x3dccbce6	0.09996967
47	0x3d4d673a	0.050147273
48	0x3d971803	0.07377627
49	0xbe0f7d86	-0.14012727
50	0xbe138fca	-0.1441032
51	0xbcf4ac0f	-0.0298672
52	0xbc608343	-0.01370317
53	0x3e1c5d9f	0.15270089
54	0x3abc0a78	0.0014346382
55	0x3d0f185d	0.034935344
56	0xbc350757	-0.011049113
57	0x3c3c41ac	0.011490267
58	0x3d44d181	0.04805136
59	0xbcac6ed6	-0.021048944
60	0x3d059e1e	0.032621495
61	0xbd39e606	-0.045385383
62	0x3ec23a39	0.37935045
63	0x3bfcd803	0.0077161803
64	0x3d63b8c6	0.055596136
65	0xbd17138d	-0.03688388
66	0x3e8367b5	0.2566506
67	0xbdebc6b4	-0.11512509
68	0x3cb9bb9d	0.022672469
69	0xbdf1a017	-0.11798113
70	0x3e4d10c3	0.20025925
71	0x3e32ffd9	0.1748041
72	0x3d51cfe6	0.051223658
73	0xbe67b44b	-0.2262737
74	0xbe5091b2	-0.20368078
75	0xbb0094fb	-0.001962005
76	0x3d0054d3	0.031330895
77	0xbcb4e891	-0.022083553
78	0xbd0c84c9	-0.03430632
79	0x3db67b5a	0.08910246
80	0xbdc5626c	-0.09637913
81	0xbe4f09ee	-0.20218632
82	0x3e3f2a8f	0.18668579
83	0x3bf4e16a	0.0074731605
84	0x3e2d0198	0.16895139
85	0xbe586c67	-0.21135102
86	0x3dee65dd	0.11640523
87	0xbea116e5	-0.3146278
88	0xbdb345d1	-0.08753551
89	0x3d81b9f3	0.06334295
90	0xbd71ff78	-0.059081525
91	0xbdc50292	-0.09619631
92	0x3dc2451f	0.0948584
93	0x3e0af193	0.13568716
94	0xbdd64b00	-0.10463524
95	0xbd054058	-0.032532066
96	0xbcec8d2a	-0.028875906
97	0xbd610e2b	-0.054945152
98	0xbdbc7f80	-0.09204006
99	0xbdd70927	-0.104997925
100	0xbd323cb3	-0.04351492
101	0x3cca8696	0.024722379
102	0xbc33da00	-0.010977268
103	0xbdd4bc9d	-0.10387538
104	0xbd9619e9	-0.07329161
105	0xbe39970e	-0.18124029
106	0xbe8c6d4a	-0.2742713
107	0xbe5631e0	-0.20917463
108	0xbea6c212	-0.3256994
109	0xbe22b3b6	-0.15888867
110	0x3e003d94	0.1252349
111	0x3d43b80f	0.047782954
112	0x3e0189c4	0.1265021
113	0xbe03cb98	-0.12870634
114	0xbe04c3a1	-0.12965252
115	0xbd5f1727	-0.05446544
116	0xbc7c7e99	-0.015411043
117	0xbd9be26f	-0.07611548
118	0xbd7be589	-0.0614982
119	0xbcfe4b25	-0.031041691
120	0xbd387cc3	-0.045040857
121	0xbde5c558	-0.11219281
122	0xbeaa55e4	-0.33268654
123	0xbe9ca999	-0.30598143
124	0xbe8c1ec0	-0.2736721
125	0xbe0ad28a	-0.13556877
126	0xbdd62fb4	-0.104583174
127	0xbe6295d6	-0.2212747
128	0x3e4959fa	0.1966323
129	0xbd4047e2	-0.046943553
130	0x3e091a5c	0.13388962
131	0x3ce1290c	0.027485393
132	0xbe31e5f8	-0.17372882
133	0x3dc469b8	0.09590477
134	0xbdbbd4d8	-0.09171456
135	0xbda2a21e	-0.07941078
136	0xbe057ca1	-0.13035823
137	0xbde5a7a0	-0.112136126
138	0xbd83fc3c	-0.06444594
139	0xbd55c8ba	-0.05219338
140	0x3e221ad3	0.15830545
141	0xbe114181	-0.14185144
142	0x3e6bd154	0.23029071
143	0xbe1b272f	-0.15151666
144	0xbdd0b8a8	-0.101914704
145	0xbd912245	-0.070866145
146	0x3ec4e2a6	0.3845417
147	0x3eda7b75	0.42672315
148	0x3e42670f	0.18984626
149	0xbdf5417e	-0.11975382
150	0xbb9f68e4	-0.004864799
151	0xbd9810a8	-0.07425052
152	0xbd6e1479	-0.058124993
153	0xbdd570c1	-0.10421897
154	0x3e079597	0.13240658
155	0xbd0d5ab7	-0.03451034
156	0x3c5aa146	0.013344115
157	0xbd25fc57	-0.040523853
158	0xbc5fca94	-0.013659138
159	0xbd463709	-0.04839233
160	0x3dc36215	0.09540192
161	0x3d41a2b6	0.047274314
162	0x3d570017	0.05249032
163	0xbd1b18ab	-0.037865322
164	0x3d024516	0.031804167
165	0xbd2ae6b7	-0.041723933
166	0xbd3def03	-0.046370517
167	0x3e88f66f	0.26750514
168	0x3e2fc38c	0.17164439
169	0xbe89b7af	-0.26897952
170	0xbdc0f720	-0.09422135
171	0xbcf296b8	-0.029612884
172	0x3da10103	0.07861521
173	0xbcc57d76	-0.024107676
174	0xbe7f3952	-0.2492421
175	0xbd993f85	-0.074828185
176	0xbe1e8933	-0.15482025
177	0x3c8b89e0	0.017033517
178	0x3c496594	0.0122922845
179	0xbdc66211	-0.096866734
180	0x3d5fc201	0.054628376
181	0x3dfa26f2	0.122144595
182	0x3e3b3526	0.18281993
183	0x3db50d15	0.08840386
184	0x3e140f7f	0.14459036
185	0x3da70ee7	0.08157139
186	0x3e2e6979	0.17032422
187	0xbdec6ac6	-0.11543803
188	0xbe4a71a4	-0.19769913
189	0xbc8802f3	-0.016602969
190	0xbc7ea58e	-0.015542401
191	0xbab99d4f	-0.0014161261
192	0x3e01f3c8	0.12690651
193	0x3e2c7564	0.16841656
194	0xbcc08a02	-0.023503307
195	0x3d0ac21c	0.033876523
196	0x3d82cdfc	0.06386945
197	0x3d19bb3d	0.03753208
198	0x3ddc622a	0.10760911
199	0x3d94a0cf	0.07257234
200	0xbd4e5245	-0.050371427
201	0xbdb57811	-0.088607915
202	0x3dad2637	0.084545545
203	0xbb420fc4	-0.0029611448
204	0x3e046eb2	0.12932852
205	0xbe60d254	-0.21955234
206	0xbe483fb4	-0.19555551
207	0xbe9df371	-0.30849794
208	0x3e22ecb9	0.15910615
209	0x3e0b8337	0.13624273
210	0x3da69db9	0.08135552
211	0xbc1968f2	-0.0093634
212	0xbe3b1943	-0.18271355
213	0xbe36da11	-0.17856623
214	0xbdbdfec1	-0.09277106
215	0x3db44d67	0.08803826
216	0x3db3ecf9	0.08785433
217	0x3defc8af	0.11708199
218	0x3e31f06b	0.17376868
219	0x3ded4026	0.11584501
220	0x3d1dd81f	0.038536187
221	0x3df18360	0.11792636
222	0xbdd6a9a8	-0.10481578
223	0x3b90fd29	0.0044247103
224	0xbe110b73	-0.14164524
225	0x3e784805	0.24246223
226	0x3e6f8d1d	0.23393674
227	0x3eab5c57	0.33468887
228	0xbe20d305	-0.15705498
229	0xbe230cea	-0.15922895
230	0xbe03ee2e	-0.12883827
231	0x3e0a9030	0.13531566
232	0x3e194c8c	0.14970607
233	0x3e42b2da	0.19013539
234	0x3ddc262d	0.10749469
235	0xbd61f10b	-0.055161517
236	0xbdee2455	-0.116280235
237	0xbe17158c	-0.14754313
238	0xbe55e3d2	-0.20887688
239	0xbe166b87	-0.14689456
240	0x3c744ad4	0.014910419
241	0xbda8ade7	-0.08236294
242	0xbdb4b955	-0.08824412
243	0x3c88989e	0.016674336
244	0xbcab1eed	-0.02088877
245	0xbe71c209	-0.23609175
246	0xbe2b399c	-0.16721195
247	0x3d0e2571	0.034703676
248	0x3d6cff23	0.057860505
249	0x3e052edd	0.13006158
250	0xbe0ae946	-0.13565549
251	0xbe3af736	-0.18258366
252	0xbcddd3e2	-0.027078573
253	0xbd9ac841	-0.07557727
254	0xbd7fdd8d	-0.062467147
255	0xbd7f9e21	-0.062406663

enc.0.bias f4 [32]
0	0x3d3a8c21	0.045543794
1	0xbe55acc4	-0.20866686
2	0x3e48d2f3	0.1961172
3	0x3e0f513b	0.1399583
4	0xbe5f861d	-0.21828504
5	0xbdda8e0c	-0.106716245
6	0x3d94d240	0.072666645
7	0xbd3bd7a6	-0.045859955
8	0xbcc9d0ba	-0.024635661
9	0xbdce4f51	-0.10073722
10	0x3e383029	0.17987122
11	0xbdfdadb7	-0.12386649
12	0x3e3e0298	0.18555677
13	0x3c595dd8	0.013267003
14	0x3d37f754	0.044913605
15	0x3e323b65	0.1740547
16	0xbd1306fb	-0.03589533
17	0xbe02bbef	-0.12767003
18	0xbd148d94	-0.036267832
19	0x3e3a22ea	0.18177381
20	0xbe29b233	-0.16571884
21	0x3d508e22	0.0509168
22	0xbe6063d3	-0.2191308
23	0x3defb30a	0.11704071
24	0x3da94da5	0.08266763
25	0x3c21059c	0.009827998
26	0x3dc72866	0.09724502
27	0x3792f1c2	1.7517134e-05
28	0x3dfdc05b	0.123902045
29	0xbe372a7f	-0.17887305
30	0xbd060ea5	-0.03272881
31	0x3dcb86f4	0.0993785

enc.1.weight f4 [32]
0	0x3f5ba24b	0.85794514
1	0x3f57a724	0.8423941
2	0x3f54eb70	0.8317175
3	0x3f4f52f1	0.80985934
4	0x3f27e9c3	0.6559107
5	0x3f7ac1af	0.9795179
6	0x3f42f8ba	0.76160777
7	0x3f928d50	1.1449375
8	0x3f4e2579	0.8052593
9	0x3f86cabc	1.053062
10	0x3f7e46a0	0.99326515
11	0x3f824ec7	1.0180291
12	0x3f7c8de9	0.9865404
13	0x3f527010	0.82202244
14	0x3f8faa17	1.1223782
15	0x3f406607	0.7515568
16	0x3f932959	1.1496993
17	0x3f9894f5	1.1920458
18	0x3f82329d	1.0171696
19	0x3f5678a1	0.83777815
20	0x3f860f09	1.0473338
21	0x3f8a1946	1.0788963
22	0x3f923c1e	1.1424596
23	0x3f4ccd10	0.800004
24	0x3f7e2596	0.992761
25	0x3f65994a	0.89687026
26	0x3f77fed9	0.9687324
27	0x3f98dac4	1.1941762
28	0x3f818feb	1.0122045
29	0x3f55029f	0.83207124
30	0x3f7fe625	0.9996055
31	0x3f83eb00	1.0306091

enc.1.bias f4 [32]
0	0x3e3d1a9f	0.18467186
1	0x3e35c4e6	0.17750892
2	0x3e8155ba	0.25260717
3	0x3f1ab479	0.6043163
4	0x3f595ffb	0.8491208
5	0x3d6fbab0	0.05852765
6	0x3e5da4f8	0.21644962
7	0xbcebc356	-0.028779667
8	0x3d6a8b16	0.05726155
9	0x3c8cc4ac	0.017183624
10	0xbba1f5c2	-0.0049426267
11	0x3c76a9c0	0.01505512
12	0xbd81d1a3	-0.06338813
13	0x3e654652	0.22390106
14	0xbbed2251	-0.007236757
15	0x3e486575	0.19569953
16	0xbca89db7	-0.020583017
17	0xbd93e0a4	-0.07220581
18	0x3cd41e09	0.025893228
19	0x3f91c0ec	1.1387
20	0x3da47c44	0.08031514
21	0x3c94fda7	0.018187357
22	0x3dad449c	0.08460352
23	0x3ebaef5b	0.3651074
24	0x3e037c6f	0.12840436
25	0x3d62277a	0.05521343
26	0x3bc44973	0.005990201
27	0x3c629605	0.013829713
28	0x3e42679a	0.18984833
29	0x3e2c3bd5	0.16819699
30	0x3ad2432b	0.0016041746
31	0xbe0b4376	-0.13599953

enc.1.running_mean f4 [32]
0	0x3ef280ff	0.4736404
1	0xbf299423	-0.66241664
2	0x3ed82e2e	0.42222732
3	0x3e8290d2	0.25501114
4	0xbf0415ef	-0.5159597
5	0xbf5991cd	-0.849881
6	0xbee1a11a	-0.44068223
7	0x3eb93d7d	0.36179724
8	0xbdf27e79	-0.11840529
9	0x3e2a6902	0.1664162
10	0xbe258de8	-0.16167414
11	0x3e8bfb36	0.27340096
12	0xbe32f4e4	-0.17476231
13	0x3e330791	0.17483355
14	0xbe9b672c	-0.3035215
15	0xbb9d2d0e	-0.0047966307
16	0xbf2b0af0	-0.66813564
17	0xbeb91989	-0.36152294
18	0xbed6d276	-0.41957444
19	0x3e1dffb4	0.15429574
20	0xbeee79c6	-0.4657728
21	0xbe6c0f84	-0.23052794
22	0xbcc618ae	-0.02418169
23	0x3eea7454	0.45791876
24	0x3f1274b7	0.5720934
25	0xbeea352d	-0.45743695
26	0x3eeb9af3	0.46016654
27	0x3f13f4f8	0.5779567
28	0xbf207b72	-0.6268836
29	0x3d4fb6e0	0.050711513
30	0xbcc3f5f0	-0.023920983
31	0xbe413928	-0.1886946

enc.1.running_var f4 [32]
0	0x3c198a6f	0.009371384
1	0x3c17f1f8	0.009273998
2	0x3bc4eff1	0.0060100486
3	0x3bcc2c56	0.006230871
4	0x3b8cee7c	0.0043008905
5	0x3c497640	0.012296259
6	0x3c140945	0.009035413
7	0x3c275a95	0.0102144675
8	0x3bc09a4b	0.005877768
9	0x3bafc77f	0.005364358
10	0x3c1bdf16	0.009513637
11	0x3c5a958d	0.01334132
12	0x3c3a4b19	0.011370444
13	0x3c26e1de	0.010185687
14	0x3c15fd20	0.009154588
15	0x3be7acde	0.007070168
16	0x3c2ede85	0.01067317
17	0x3c1388c1	0.009004773
18	0x3c2ab396	0.010418793
19	0x3b394dee	0.002827521
20	0x3c3274f7	0.010892144
21	0x3ba1f9a6	0.0049430905
22	0x3be068fc	0.0068484526
23	0x3beea0db	0.007282359
24	0x3c2c6353	0.010521728
25	0x3c1b7ed7	0.00949069
26	0x3c2687eb	0.010164241
27	0x3c100639	0.008790546
28	0x3c6f16e0	0.014592856
29	0x3bb32e1a	0.005468142
30	0x3c575375	0.013142456
31	0x3c1346c8	0.0089890435

enc.3.weight f4 [64, 32, 5]
0	0x3bc1f3da	0.005918962
1	0xbc86e35b	-0.016465833
2	0xbc16a307	-0.009194142
3	0x3cf91622	0.030406062
4	0xbd68f3ad	-0.056873012
5	0x3b0cacc3	0.0021465279
6	0xbd15984f	-0.036522206
7	0xbcc242f9	-0.023713576
8	0x3d47c896	0.048775278
9	0x3c84cc91	0.016210826
10	0x3ca12e8f	0.019675521
11	0x3d0abb08	0.033869773
12	0x3c9d4831	0.019199463
13	0x3e22b9d7	0.15891205
14	0xbd07a153	-0.033112835
15	0xbd0a1856	-0.033714615
16	0x3d2950dc	0.04133688
17	0xbd84d499	-0.06485862
18	0x3e00967a	0.12557402
19	0x3c4c4cc0	0.0124694705
20	0xbcbe9140	-0.02326262
21	0x3c1e0b25	0.009646212
22	0xbcb40e3b	-0.021979442
23	0x3d37dd71	0.044888917
24	0x3d58da80	0.052942753
25	0xbcb4a188	-0.02204968
26	0xbd11134a	-0.035418786
27	0x3d610947	0.05494049
28	0x3cc52f44	0.02407039
29	0xbcf4261b	-0.029803326
30	0x3c619dd0	0.013770536
31	0x3d1096ae	0.03529995
32	0x3d6b5b12	0.0574599
33	0xbdae4407	-0.08509069
34	0x3b0881bb	0.0020829279
35	0xbb7ded1e	-0.003874607
36	0xbd7817e3	-0.060569655
37	0x3c450fbc	0.012027677
38	0xbce5f980	-0.028073072
39	0xbd1a704f	-0.037704762
40	0xbdafffca	-0.0859371
41	0xbc246c9e	-0.010035662
42	0x3dbefb80	0.093253136
43	0x3d4c2594	0.049840525
44	0xbbe51256	-0.006990711
45	0x3c24078f	0.010011568
46	0xbd7de7c6	-0.061988614
47	0xbc875c92	-0.016523633
48	0x3e10acc6	0.14128408
49	0x3d927a9e	0.071522936
50	0x3d136a98	0.035990328
51	0x3d89431f	0.067022555
52	0x3cd1912e	0.025581922
53	0xbd547f0c	-0.051878974
54	0x3df8acc0	0.121423244
55	0xbc82d7a9	-0.015971975
56	0xbdcca6ec	-0.09992775
57	0xbce59006	-0.028022777
58	0x3dc39a9c	0.09550974
59	0xbe1337ea	-0.14376798
60	0xbdcf0d26	-0.1010993
61	0x3d94e328	0.07269889
62	0x3d85b273	0.06528177
63	0x3bb7f38b	0.0056137494
64	0xbd0da770	-0.03458351
65	0x3b6c06bf	0.0036014763
66	0xbc81a05b	-0.015823534
67	0x3d1133af	0.03544968
68	0x3e1b6012	0.15173367
69	0x3c6deffe	0.014522551
70	0xbc8ecc4a	-0.017431397
71	0x3bd1aea1	0.006398991
72	0xbcab05e7	-0.020876838
73	0xbddf472f	-0.10902249
74	0xbd3258f7	-0.043541875
75	0x3d303bfb	0.04302595
76	0xbc96d4f8	-0.018412098
77	0x3cf568cb	0.029957196
78	0xbc91b2ff	-0.017785547
79	0x3bc6daef	0.0060685794
80	0xbd481b94	-0.048854426
81	0xbc85df0e	-0.016341712
82	0x3c97a136	0.018509489
83	0xbcdaf03f	-0.026725886
84	0x3e01799c	0.12644047
85	0xbd6afa55	-0.05736764
86	0xbcc41cd7	-0.023939533
87	0x3d29438c	0.041324183
88	0xbd3e68ff	-0.04648685
89	0x3c98921c	0.018624358
90	0xbc92e2ed	-0.017930472
91	0xbd963a09	-0.07335288
92	0xbda4592f	-0.08024823
93	0x3db1ddd6	0.0868489
94	0xbcdd103c	-0.02698528
95	0xbce93401	-0.02846718
96	0xbc8a1910	-0.016857654
97	0x3d87de5f	0.06634211
98	0xbcc45afb	-0.023969164
99	0x3d273c93	0.040829252
100	0xbdd28830	-0.10279882
101	0xbd8f5da9	-0.07000286
102	0xbbb0db81	-0.0053972607
103	0xbdb478ae	-0.0881208
104	0x3d4514e4	0.048115626
105	0x3ce7be62	0.028289024
106	0x3c839dad	0.016066397
107	0xbd5b76a7	-0.053579953
108	0xbcdd2fb9	-0.027000295
109	0x3d8b90b0	0.06814706
110	0x3dae2d24	0.08504704
111	0x3d92b29d	0.07162974
112	0x3cc9cffd	0.02463531
113	0xb9693bfe	-0.0002224296
114	0x3b0ce0f1	0.002149638
115	0x3d22a06f	0.039703783
116	0x3cf225c0	0.029559016
117	0x3dd2dac8	0.102956355
118	0xbd1fd50e	-0.039021544
119	0xbc821ffe	-0.015884396
120	0xbcb20ef4	-0.021735646
121	0xbc30f2ea	-0.010800103
122	0x3cf58fa5	0.029975722
123	0xbd4714b1	-0.048603717
124	0x3c964dfc	0.018347733
125	0x3b504492	0.0031779152
126	0xbd44eb06	-0.0480757
127	0x3ddacc41	0.106834896
128	0xbd3af554	-0.04564412
129	0x3d9e7374	0.07736865
130	0xbd21adfe	-0.039472573
131	0x3de316ad	0.110883094
132	0x3d347808	0.044059783
133	0xbdf6943b	-0.120399915
134	0xbc6f743e	-0.014615117
135	0x3d118f25	0.035536904
136	0x3c34577d	0.011007187
137	0x3ca1f39d	0.019769484
138	0xbd058999	-0.032601926
139	0xbbb298dc	-0.005450351
140	0xbd14f835	-0.03636952
141	0xbd122f9e	-0.035689943
142	0x3c9576ba	0.01824509
143	0x3da38360	0.07984042
144	0x3e1909e6	0.14945182
145	0x3d80b029	0.062836
146	0x3be25f36	0.0069083227
147	0x3d325ad4	0.04354365
148	0x3db0fd03	0.08642008
149	0xbc9efdee	-0.019408192
150	0xbda3ae18	-0.0799219
151	0xbcfc1ba0	-0.030774891
152	0xbb971c4c	-0.0046115275
153	0x3c18f81e	0.0093364995
154	0x3c2cf4a7	0.010556377
155	0xbd468147	-0.048463132
156	0x3d0afd8a	0.0339332
157	0xbd08d651	-0.033407513
158	0x3c80d557	0.015726728
159	0xbd21cc76	-0.03950163
160	0xbd0c7a45	-0.034296293
161	0xbd913735	-0.07090608
162	0xbd2e561b	-0.042562585
163	0x3bd6242e	0.0065350747
164	0xbc0a15b4	-0.008428026
165	0x3c6cb86d	0.014448267
166	0xbd29b9ef	-0.041437086
167	0xbdc462d7	-0.09589165
168	0x3c2b646b	0.010460953
169	0xbce5318f	-0.027977733
170	0xbd9b3e29	-0.075802155
171	0xbd91c21e	-0.07117103
172	0xbd5cd84d	-0.053917218
173	0x3da09623	0.07841136
174	0xbcfd8bb2	-0.030950401
175	0x3c849135	0.016182521
176	0xbc56b520	-0.013104707
177	0xbd2ba268	-0.04190293
178	0x3d853478	0.06504148
179	0xbd180639	-0.03711531
180	0xbd0c1c74	-0.034206823
181	0x3d818c57	0.06325596
182	0xbd5f4cd6	-0.054516636
183	0x3d92f943	0.07176449
184	0xbc392ad3	-0.011301714
185	0x3da3707b	0.07980438
186	0x3d8fd9ae	0.07023941
187	0x3cb9d527	0.022684647
188	0x3d2fdf66	0.04293766
189	0xbd1ab0db	-0.03776632
190	0x3e06316a	0.13104787
191	0x3c0afd64	0.008483265
192	0x3c1053b7	0.008809022
193	0x3cb46525	0.022020886
194	0x3d032580	0.032018185
195	0x3d0443a8	0.032291085
196	0x3c687f65	0.0141905295
197	0x3c9d1982	0.019177202
198	0x3d118ed1	0.03553659
199	0x3e16576d	0.14681788
200	0x3dbce3ea	0.09223159
201	0x3d658c3d	0.056041945
202	0x3ccb2732	0.024798963
203	0x3cbb311e	0.02285057
204	0x3cdc9450	0.02692619
205	0xbd1155d4	-0.035482243
206	0xbd378f58	-0.044814438
207	0xbd9cc3e4	-0.07654551
208	0xbcb1d0fd	-0.021706099
209	0x3caa1413	0.020761525
210	0x3cc9e450	0.024645
211	0x3d89ee3d	0.067348935
212	0x3d2b22ea	0.041781344
213	0x3d808953	0.062761925
214	0x3c5e0ea3	0.013553294
215	0xbcec2617	-0.028826756
216	0xbcf3bf06	-0.029754173
217	0x3bb29075	0.0054493495
218	0x3c0168bf	0.007898509
219	0x3d75e4c7	0.060032632
220	0x3d3a7aa8	0.04552713
221	0x3cc123d7	0.02357666
222	0x3d735069	0.059402857
223	0x3d653386	0.05595734
224	0xbce5ce08	-0.028052345
225	0xbcf80c7b	-0.030279389
226	0xbcf22bd2	-0.02956191
227	0xbbb821eb	-0.0056192777
228	0x3ca28001	0.019836428
229	0x3d3b51bc	0.045732245
230	0x3e6c0d8b	0.23052041
231	0x3df5664a	0.11982401
232	0x3d905914	0.0704824
233	0x3daa6601	0.08320237
234	0xbd9c6442	-0.0763631
235	0x3c8fbb0b	0.017545244
236	0xbc514255	-0.012772162
237	0xbd076ba8	-0.033061653
238	0xbd367dc0	-0.04455352
239	0x3d5325da	0.05154977
240	0x3d29f591	0.041493956
241	0x3d4cb0ac	0.049973175
242	0x3ce9b563	0.028528875
243	0xbca8327a	-0.020531882
244	0x3b2fd0ee	0.0026827413
245	0x3bee1d25	0.007266658
246	0x3d81290b	0.063066565
247	0x3d6cca67	0.057810213
248	0xbd877324	-0.06613758
249	0x3d76da0e	0.060266547
250	0xbcb49801	-0.022045137
251	0xbcba1ec5	-0.02271975
252	0x3c688779	0.014192455
253	0xbcbe0296	-0.023194592
254	0xbd3f1d25	-0.046658654
255	0x3db2156c	0.08695492

enc.3.bias f4 [64]
0	0x3d6f9ec5	0.058501024
1	0x3cd6102b	0.026130756
2	0xbd899c5e	-0.06719278
3	0x3d24a41a	0.040195562
4	0x3d991bfe	0.07476042
5	0xbd722efc	-0.05912684
6	0xbc88bae4	-0.016690679
7	0xbd82ae38	-0.06380886
8	0x3d58f533	0.052968215
9	0x3d2bd054	0.041946724
10	0x3d6c4fbc	0.057693228
11	0x3cb59c06	0.022169124
12	0xbc54634e	-0.012963129
13	0xbbfc503c	-0.0076999944
14	0xbd717cac	-0.058956787
15	0x3d4d87ac	0.050178215
16	0xbd01f3c2	-0.031726606
17	0x3c0dde49	0.008658954
18	0x3b2ee2ba	0.0026685433
19	0x3cc34a10	0.023839027
20	0xbd821dc8	-0.063533366
21	0xbc4d929e	-0.012547163
22	0x3d151f63	0.036406886
23	0xbd6f30c3	-0.058396112
24	0xbd0b0462	-0.033939727
25	0xbd328066	-0.04357948
26	0xbd88f2bc	-0.06686923
27	0x3d9e0479	0.07715697
28	0x3d8bdfaa	0.0682977
29	0x3d4b0122	0.049561627
30	0xbd863235	-0.06552545
31	0xba3cfdff	-0.0007209479
32	0x3c6dd998	0.01451721
33	0x3d0f6c3b	0.035015326
34	0x3c81bc5b	0.015836885
35	0xbd462a30	-0.048380077
36	0x3b247d6a	0.0025099167
37	0xbd82ddcc	-0.06389961
38	0x3d222504	0.039586082
39	0x3d4bb8a1	0.049736623
40	0xbce7ae99	-0.028281497
41	0xbd8df5d9	-0.06931657
42	0x3a2c0627	0.0006562196
43	0x3d2561fe	0.040376656
44	0xbd5d079e	-0.053962342
45	0x3d08cf86	0.033401035
46	0x3d6186bb	0.05506013
47	0xbd862e82	-0.065518394
48	0x3d3339bb	0.043756228
49	0x3d129e74	0.035795644
50	0xbd2683a8	-0.0406529
51	0x3d87fe55	0.06640307
52	0xbd1bdf0a	-0.038054504
53	0x3d760607	0.060064342
54	0xbd787a5d	-0.06066357
55	0x3d7f656e	0.06235259
56	0xbc91563d	-0.017741317
57	0xbd8f2679	-0.0698976
58	0x3d2cab21	0.04215539
59	0xbbd3288d	-0.006444043
60	0x3cb713a7	0.022348238
61	0x3d153c8d	0.0364347
62	0x3c0aad65	0.008464192
63	0x3cce4011	0.025177034

enc.4.weight f4 [64]
0	0x3f703627	0.9383263
1	0x3f6462b3	0.89213103
2	0x3f646e00	0.89230347
3	0x3f80cacc	1.0061889
4	0x3f6cc713	0.92491263
5	0x3f8695cc	1.0514464
6	0x3f5f1bad	0.87151605
7	0x3f80330e	1.0015581
8	0x3f7fe54a	0.9995924
9	0x3f679e09	0.9047552
10	0x3f69a044	0.9126017
11	0x3f6e9dbe	0.93209445
12	0x3f644f74	0.89183736
13	0x3f70a938	0.9400821
14	0x3f79136c	0.9729526
15	0x3f75e1ec	0.96047854
16	0x3f832272	1.0244887
17	0x3f69ce38	0.9133029
18	0x3f6631c1	0.8991967
19	0x3f71c1f0	0.9443655
20	0x3f6b2a23	0.9186117
21	0x3f7fdbb5	0.9994462
22	0x3f795069	0.9738832
23	0x3f8bd0eb	1.0923132
24	0x3f79e635	0.97616893
25	0x3f7669f7	0.9625544
26	0x3f666986	0.90004766
27	0x3f6bb9c0	0.92080307
28	0x3f76f9d3	0.9647495
29	0x3f7b2fa7	0.98119587
30	0x3f6d5edd	0.92722875
31	0x3f82b28d	1.0210739
32	0x3f722af3	0.94596785
33	0x3f6d5dbd	0.9272116
34	0x3f85a011	1.0439473
35	0x3f6d36ed	0.92661935
36	0x3f782787	0.96935314
37	0x3f769907	0.9632725
38	0x3f6e88d8	0.93177557
39	0x3f69f589	0.9139028
40	0x3f6b9c9a	0.9203583
41	0x3f7f96f6	0.99839723
42	0x3f86bf55	1.052714
43	0x3f9062d9	1.1280166
44	0x3f6d4152	0.92677796
45	0x3f58ec8e	0.84735954
46	0x3f823c43	1.017464
47	0x3f84df1d	1.0380589
48	0x3f852338	1.0401373
49	0x3f438652	0.7637683
50	0x3f860d9a	1.0472901
51	0x3f633015	0.8874524
52	0x3f815ae4	1.0105863
53	0x3f751d4a	0.95747817
54	0x3f7f539a	0.9973694
55	0x3f75b7a1	0.9598332
56	0x3f7eb54d	0.99495393
57	0x3f70131a	0.93779147
58	0x3f61ea96	0.88248575
59	0x3f6470ce	0.89234626
60	0x3f843a35	1.0330263
61	0x3f751ef4	0.95750356
62	0x3f644279	0.8916393
63	0x3f6b22f2	0.918502

enc.4.bias f4 [64]
0	0x3e70a89b	0.23501818
1	0x3df59b5a	0.119925216
2	0x3e66aa03	0.22525792
3	0x3e81136d	0.25210133
4	0x3dd94372	0.10608567
5	0x3e005d5b	0.12535612
6	0x3d8ad54a	0.06778963
7	0x3eee1131	0.4649749
8	0x3dcbfde4	0.09960535
9	0x3e5c3758	0.21505487
10	0x3df0c7dc	0.1175687
11	0x3d14ecf0	0.036358774
12	0x3de95b5e	0.1139438
13	0x3e111c3b	0.14170925
14	0x3e8649b7	0.26228115
15	0x3d88a80c	0.066726774
16	0x3f4eed79	0.80831105
17	0x3e2ec037	0.17065512
18	0x3e3de039	0.18542565
19	0x3f1cdb60	0.6127224
20	0x3d69cb78	0.05707881
21	0x3f25c915	0.6475995
22	0x3ddc1399	0.107459255
23	0x3f32f5b6	0.69906175
24	0x3e1c1506	0.15242395
25	0x3e4d3155	0.2003835
26	0x3eab9cf2	0.33518177
27	0x3e7528ed	0.23941393
28	0x3ddad68f	0.10685455
29	0x3e3eada6	0.18620929
30	0x3dda1216	0.10647981
31	0x3ef86158	0.48511767
32	0x3e61b593	0.22041921
33	0x3ee013ce	0.4376511
34	0x3d952002	0.07281496
35	0x3e5554e2	0.20833161
36	0x3e263e68	0.16234744
37	0x3effec06	0.4998476
38	0x3da68be0	0.08132148
39	0x3f28bf87	0.6591725
40	0x3dcd1279	0.10013289
41	0x3e6fc266	0.23414001
42	0x3d1e5f95	0.038665373
43	0x3bba071e	0.005677118
44	0x3daf1061	0.08548046
45	0x3f2afff3	0.667968
46	0x3de039b3	0.10948505
47	0x3dc97448	0.09836632
48	0x3d42dca2	0.047573693
49	0x3f196cf0	0.5993185
50	0xbcfede4f	-0.031111864
51	0x3eabb504	0.3353654
52	0x3e069e52	0.13146332
53	0xbbf75386	-0.0075477986
54	0x3f201ce3	0.6254408
55	0x3e0a190b	0.13486116
56	0x3e441a1d	0.19150586
57	0x3f3f81b2	0.74807274
58	0x3e842f25	0.25817218
59	0x3d9d22ba	0.07672639
60	0x3f59dda5	0.8510383
61	0x3e6840ba	0.22680941
62	0x3eaea136	0.3410737
63	0x3e283cb3	0.16429405

enc.4.running_mean f4 [64]
0	0x3f05dde3	0.522917
1	0x3f03d27d	0.51493055
2	0x3ef05cb4	0.46945727
3	0x3e7f244a	0.24916187
4	0x3f1e44c1	0.6182366
5	0x3e9a5e31	0.30149987
6	0x3f147344	0.5798838
7	0xbe5c4254	-0.21509677
8	0x3e9a8838	0.30182052
9	0x3ee979d4	0.4560076
10	0x3e0766e7	0.13222848
11	0x3f4df71f	0.804552
12	0x3f0a9cb7	0.5414538
13	0x3ec09395	0.37612596
14	0x3d82a75a	0.06379576
15	0x3ea5d91a	0.32392198
16	0xbee2a73a	-0.4426821
17	0x3e867e35	0.26268163
18	0x3f3b2ffb	0.7312009
19	0x3cffcb46	0.031224858
20	0x3f09d2b2	0.5383712
21	0xbf0be963	-0.54652995
22	0x3ed92ff8	0.4241941
23	0xbf084830	-0.5323515
24	0x3f27adbc	0.6549947
25	0x3e913f95	0.28368822
26	0x3ee6783c	0.45013607
27	0x3f3898be	0.72108066
28	0x3f026ad6	0.5094427
29	0x3f0f78b0	0.5604353
30	0x3d929a26	0.07158308
31	0xbe1283cc	-0.14308089
32	0xbc9c5a03	-0.01908589
33	0xbed7aacb	-0.42122492
34	0xbe884881	-0.26617816
35	0x3f220a0a	0.6329657
36	0x3ef6bb19	0.4818962
37	0x3e2df101	0.16986467
38	0x3ed76c98	0.42075038
39	0xbe676967	-0.22598802
40	0x3de9a41d	0.11408255
41	0x3ec12eab	0.37730917
42	0x3f05d278	0.52274275
43	0x3f2e4af6	0.6808313
44	0xbef81302	-0.48452002
45	0xbe390964	-0.18069988
46	0x3e0443cb	0.12916486
47	0x3ec15df7	0.37767002
48	0x3eeb1968	0.4591782
49	0x3f0cb523	0.5496389
50	0x3f26839b	0.65044564
51	0x3f454c6f	0.77069753
52	0x3d12c305	0.035830516
53	0x3f7ae08a	0.9799887
54	0xbef63246	-0.4808523
55	0x3ed45292	0.41469246
56	0x3ee8c069	0.45459297
57	0xbedd7419	-0.43252638
58	0xbd8c5a5c	-0.06853172
59	0xbecca568	-0.39969945
60	0xbe078edd	-0.13238092
61	0x3f06f61e	0.52719295
62	0x3f00943d	0.50226194
63	0x3e754363	0.23951487

enc.4.running_var f4 [64]
0	0x3f47db60	0.78069115
1	0x3f3eaa11	0.7447825
2	0x3ecd2778	0.40069175
3	0x3f60fdff	0.8788757
4	0x3f1f0f4d	0.6213272
5	0x3f7ccfff	0.98754877
6	0x3f23ffe7	0.6406235
7	0x3f100713	0.56260794
8	0x3f3163f8	0.69293165
9	0x3ee083c7	0.43850538
10	0x3f4f63bb	0.8101155
11	0x3f2af8a3	0.6678564
12	0x3f1f9e4c	0.62350917
13	0x3f6e9d02	0.93208325
14	0x3f84007f	1.0312651
15	0x3f65a236	0.8970064
16	0x3f4d3075	0.80152065
17	0x3f397563	0.7244474
18	0x3ee6f94f	0.45112082
19	0x3ebcda64	0.3688537
20	0x3f280d4a	0.6564528
21	0x3ed62d09	0.41831234
22	0x3f10754c	0.5642898
23	0x3f1155d5	0.56771594
24	0x3f5181d5	0.8183873
25	0x3fc668c2	1.550072
26	0x3f53ac87	0.8268513
27	0x3f2c1e0d	0.67233354
28	0x3f25e179	0.6479717
29	0x3f25792a	0.64638007
30	0x3f4e7595	0.80648166
31	0x3eeee348	0.46657777
32	0x3fa3eb40	1.2806168
33	0x3f3c53e4	0.73565507
34	0x3f6d4e41	0.9269753
35	0x3f302a8a	0.6881491
36	0x3fb2ece3	1.3978542
37	0x3ed62b6b	0.4183
38	0x3ef9e8f3	0.4881054
39	0x3edc29ae	0.4300055
40	0x3f92b28b	1.1460737
41	0x3f7c9c45	0.9867595
42	0x3f8b73d6	1.0894725
43	0x3f267bc9	0.6503263
44	0x3f27a345	0.65483505
45	0x3e70c798	0.23513639
46	0x3faef848	1.366952
47	0x3f16d56a	0.58919394
48	0x3f18f777	0.597526
49	0x3eff1cce	0.49826664
50	0x3f311753	0.69176215
51	0x3f036427	0.51324695
52	0x3f491656	0.78549707
53	0x3ecaea2e	0.3963179
54	0x3f000831	0.500125
55	0x3ee6a08b	0.4504436
56	0x3f73eabf	0.9528007
57	0x3ed7f65e	0.4218015
58	0x3f3126a4	0.69199586
59	0x3f5fb744	0.87389016
60	0x3ef8404a	0.4848655
61	0x3f724e7b	0.94651
62	0x3ed5e3ae	0.41775268
63	0x3f5e66e8	0.8687577

enc.6.weight f4 [128, 64, 5]
0	0xbd9a7a11	-0.075428136
1	0xbc83b23d	-0.016076202
2	0xbd19eb92	-0.037578173
3	0xbc2661c8	-0.010155149
4	0xbd59ec36	-0.053203784
5	0xb9375db3	-0.00017487146
6	0x3d787228	0.060655743
7	0xbc5241e1	-0.01283309
8	0xbd47964f	-0.04872733
9	0xbb34786e	-0.0027537602
10	0x3caca506	0.021074783
11	0xba0b624e	-0.0005317078
12	0xbcb91f85	-0.022598037
13	0x3c8deb6a	0.017324168
14	0xbd24ec48	-0.040264398
15	0x3d8aa347	0.06769424
16	0xb8886c2e	-6.5051354e-05
17	0x3b55c87e	0.0032620723
18	0x3c8155ef	0.015788047
19	0x3d0025f1	0.031286184
20	0x3cfce549	0.03087105
21	0xbd002294	-0.031282976
22	0x3bc63d56	0.0060497923
23	0x3bc76037	0.0060844678
24	0x3b3866b3	0.0028137385
25	0x3cfe5854	0.031047978
26	0xbc8b8582	-0.017031435
27	0x3d2dcd4d	0.04243212
28	0x3d35a000	0.04434204
29	0xbd767bc4	-0.060176626
30	0x3d8dd809	0.06925971
31	0x3da77e41	0.08178378
32	0xbc86e82c	-0.01646813
33	0x3da66b08	0.08125883
34	0x3d8b5b7c	0.06804559
35	0xbc1f2d6e	-0.009715421
36	0xbd06ab9f	-0.032878514
37	0xbd2b33e4	-0.041797534
38	0xbd396178	-0.04525897
39	0xbcd5bf34	-0.02609215
40	0xbd5592c8	-0.052141935
41	0xbc3e3db8	-0.011611395
42	0x3cba251e	0.022722777
43	0x3c805fa7	0.01567061
44	0xbc06354b	-0.008191417
45	0x3caf53c4	0.021402247
46	0x3a009510	0.00049050245
47	0xbd1a6dc8	-0.03770235
48	0x3c3c2fec	0.011486035
49	0xbc41caa6	-0.0118281
50	0xbd38116b	-0.044938486
51	0x3d17fea5	0.037108082
52	0xbd213698	-0.039358705
53	0xbca62916	-0.020283263
54	0xbbc24fa5	-0.0059299045
55	0xbcbc8156	-0.02301089
56	0x3d402e42	0.046919115
57	0x3b7f6a20	0.0038973168
58	0x3be43077	0.0069637853
59	0x3d054a4f	0.03254157
60	0xbd0d66c8	-0.034521848
61	0x3c8b1b60	0.016980827
62	0x3ca9dd36	0.020735364
63	0x3d256008	0.040374786
64	0xbac32853	-0.0014889337
65	0x3cf847a9	0.030307608
66	0x3cdadc0d	0.026716257
67	0x3cd761ea	0.026291806
68	0xbb84bbb3	-0.004050696
69	0x3cc0a831	0.0235177
70	0xbc3b4a15	-0.011431237
71	0xbc64027f	-0.013916611
72	0xbc58e551	-0.013238267
73	0x3bee5d45	0.007274302
74	0x3cd1fe20	0.025633872
75	0x3d5957e9	0.053062353
76	0x3c16f7b8	0.009214334
77	0xbc6f8450	-0.014618948
78	0x3d458922	0.048226483
79	0x3d181812	0.03713233
80	0xbd5ea411	-0.054355685
81	0x3d8e3cdd	0.069452025
82	0x3df5b0d7	0.1199662
83	0x3ca6ecc2	0.020376567
84	0x3befefbe	0.0073222807
85	0x3cd8960a	0.026438732
86	0xbbc6d501	-0.0060678725
87	0x3c224c1d	0.009905842
88	0xbcd4c22e	-0.025971498
89	0xbbe176af	-0.0068806033
90	0x3de9be4b	0.11413249
91	0xbc30de09	-0.010795125
92	0x3d22373b	0.039603453
93	0x3d6a2c0d	0.057170916
94	0x3cdba134	0.026810266
95	0xbb1d586c	-0.0024009002
96	0xbccbc8c2	-0.024876002
97	0xbd808332	-0.062750235
98	0x3cd3514d	0.025795603
99	0x3c3817d9	0.0112361545
100	0xbce45f83	-0.027877575
101	0x3d2d2953	0.042275738
102	0x3c314e57	0.0108219
103	0x3b2fcf03	0.002682627
104	0x3ab0093c	0.0013430486
105	0x3d7077f9	0.058708165
106	0x3cd90d80	0.026495695
107	0x3ca084e9	0.019594627
108	0x3c81950a	0.015818138
109	0xbd18cecb	-0.03730659
110	0xbc459cb1	-0.012061284
111	0xbc981df9	-0.01856898
112	0x3ae66914	0.0017578923
113	0xbd0c6ec5	-0.034285326
114	0xbd0f9960	-0.03505838
115	0x3d7e48d6	0.06208118
116	0x3c791401	0.015202523
117	0xbb9f9112	-0.0048695887
118	0xbc117b3c	-0.008879479
119	0xbd6e1209	-0.05812267
120	0x3d4c88dc	0.049935207
121	0x3df67235	0.12033502
122	0xbb3248ef	-0.0027204116
123	0xba41d60f	-0.0007394263
124	0x3d7d2b40	0.061808825
125	0xbd513ff3	-0.051086377
126	0x3c334aa9	0.010943093
127	0x3d0286e3	0.03186692
128	0xbd026792	-0.031837054
129	0xbd2b9417	-0.041889276
130	0x3c97ad1d	0.018515164
131	0x3d3571ae	0.044297867
132	0x3d02bf4c	0.031920716
133	0x3c14ee1a	0.009089971
134	0x3cc64f84	0.024207838
135	0xbc4528c6	-0.012033647
136	0x3d1054c8	0.035237104
137	0xbbad5aa6	-0.005290347
138	0xbd525e48	-0.051359445
139	0x3d000577	0.03125521
140	0xbc0ef4a5	-0.00872532
141	0x3d4ad786	0.049521945
142	0x3c01c679	0.007920855
143	0xbcaf225c	-0.021378689
144	0x3c2482e0	0.010040969
145	0x3cb91987	0.02259518
146	0xbce71759	-0.028209375
147	0xbc92c21a	-0.01791482
148	0xbd647fe1	-0.055786017
149	0xbd898095	-0.06713978
150	0x3d04a7e7	0.032386687
151	0xbc91a56f	-0.01777908
152	0xbbb7f9f3	-0.005614513
153	0xbcd27af9	-0.025693404
154	0xbd6d2b9c	-0.057902917
155	0x3af42a5d	0.0018628348
156	0x3c36197e	0.011114476
157	0xbd2cf093	-0.042221617
158	0x3d4723ea	0.048618235
159	0xbd68889a	-0.0567709
160	0xbcd4b5a6	-0.025965523
161	0x3c826432	0.015916917
162	0x3bc0f8b9	0.005889025
163	0xbc97df83	-0.018539196
164	0xbb8409b9	-0.0040294793
165	0x3ba65bef	0.0050768773
166	0x3e0ddd31	0.13853909
167	0x394fa2b6	0.00019801673
168	0xbd39ac59	-0.04533038
169	0x3912af85	0.00013989031
170	0x3da1bcd1	0.07897342
171	0xbd8bd079	-0.068268724
172	0x3d3e5864	0.046471015
173	0x3e01b910	0.12668252
174	0x3d55d0ce	0.052201085
175	0xbcedce3b	-0.029029002
176	0xbcd67120	-0.02617699
177	0xbda16c8a	-0.0788203
178	0xbc25b02c	-0.010112803
179	0x3c8523d1	0.01625243
180	0xbc7f3478	-0.015576474
181	0xbc479db1	-0.012183593
182	0xbc289736	-0.010289958
183	0x3c6d251d	0.0144741805
184	0xbd4dc202	-0.05023385
185	0x3d1bd500	0.03804493
186	0x3ce76660	0.028247058
187	0x3d0e0357	0.034671154
188	0x3d74b43c	0.059742197
189	0x3c23d9db	0.010000671
190	0x3c8848f3	0.016636347
191	0x3d132ba2	0.035930283
192	0xbc53cff6	-0.012928
193	0xbd8f0b52	-0.06984581
194	0xbd8a06d8	-0.067395866
195	0x3d014818	0.031562895
196	0x3d6e48e5	0.058174986
197	0x3d1cc87b	0.03827713
198	0xbd88c418	-0.06678027
199	0x3d20a3a1	0.03921855
200	0x3d38e744	0.045142427
201	0x3cbb1487	0.022836937
202	0xbc0c8863	-0.008577439
203	0x3d044530	0.032292545
204	0x3cf2f2e9	0.029656844
205	0x3ac9e73a	0.0015403994
206	0x3bebcf63	0.0071963533
207	0x3c2b43f3	0.010453212
208	0x3d6f834c	0.058474824
209	0xbbf15967	-0.007365394
210	0xbc8b5f91	-0.017013343
211	0x3d479aed	0.048731733
212	0xbd33ea62	-0.043924697
213	0xbe11858a	-0.14211097
214	0xbcc72f7c	-0.024314635
215	0xbc0b70e4	-0.008510802
216	0x3d226407	0.039646175
217	0xbdab0c36	-0.083519384
218	0xbd8ebd6a	-0.069697216
219	0x3d03e6dc	0.032202587
220	0x39e069e4	0.00042803504
221	0xbd64262c	-0.055700466
222	0xbd9dd22e	-0.07706104
223	0x3bdba75e	0.0067033013
224	0xbc26ba44	-0.010176245
225	0xbc45a728	-0.012063779
226	0x3d6802c2	0.056643255
227	0x3e09b1e3	0.13446765
228	0xbd4399f5	-0.047754247
229	0x3cbf9430	0.023386091
230	0x3d06ceb4	0.03291197
231	0xbcc7bf96	-0.024383347
232	0xbcfcd0c5	-0.030861268
233	0xbd9bff47	-0.0761705
234	0xbd18c875	-0.037300546
235	0x3daf0423	0.08545711
236	0xbc1d0ec0	-0.009586036
237	0x3c7dd4ff	0.015492677
238	0xbcf4089a	-0.029789258
239	0xbd4b82a5	-0.04968514
240	0x3d25436d	0.040347505
241	0x3d218086	0.03942921
242	0xbd6429a2	-0.055703767
243	0x3b1e8c61	0.002419256
244	0x3bb91e01	0.0056493287
245	0x3dc6c93b	0.097063504
246	0x3d951332	0.07279052
247	0x3ceee89f	0.029163657
248	0x3b8e3df6	0.0043408824
249	0x3a0385f6	0.0005017215
250	0xbc8d305c	-0.017234974
251	0xbba1d64d	-0.0049388767
252	0x3df713a1	0.12064291
253	0xbdcff84b	-0.1015478
254	0x3d9e6e36	0.07735865
255	0xbcac9670	-0.021067828

enc.6.bias f4 [128]
0	0x3d077772	0.033072896
1	0xbd06d416	-0.032917105
2	0x3d31b1e2	0.043382533
3	0xbc5b092e	-0.013368888
4	0xbc160afa	-0.00915789
5	0x3d5c23cc	0.053745076
6	0xbd4d4ced	-0.05012219
7	0x3c9db908	0.019253269
8	0xbc80aeb5	-0.015708307
9	0x3c2d8155	0.010589917
10	0x3bf486f1	0.0074623753
11	0xbca56a98	-0.02019243
12	0xbbac6e62	-0.005262182
13	0xbaa44945	-0.0012534043
14	0xbaf73976	-0.0018861729
15	0x3d633d67	0.05547848
16	0xb938e550	-0.00017633033
17	0xbcdd60c4	-0.02702368
18	0x3cb2a466	0.021806907
19	0xbd15fab8	-0.036616057
20	0xbcc99587	-0.024607433
21	0x3aa5cb20	0.0012649037
22	0x3cdd257c	0.026995413
23	0x3bd2c3d1	0.0064320345
24	0x3c418a05	0.011812692
25	0xbc5b15c3	-0.013371888
26	0x3d5057d6	0.050865017
27	0xbd30305b	-0.043014865
28	0xbd287cea	-0.041134752
29	0xbd30c8e7	-0.043160345
30	0x3cf6716d	0.030083383
31	0x3ca1f176	0.019768458
32	0x3c3f81b8	0.011688642
33	0x36b0ad9b	5.265419e-06
34	0xbce5bbf7	-0.02804373
35	0xbd43e572	-0.047826238
36	0x3d1bf4d3	0.03807528
37	0x3d1126ef	0.03543752
38	0x3cf38fdf	0.029731689
39	0xbc8c1a79	-0.017102467
40	0xbd3e5a02	-0.046472557
41	0xbc919f37	-0.017776115
42	0xbd54e7ec	-0.05197899
43	0xbc4e9f2d	-0.012611193
44	0x3d4f2ef9	0.050581906
45	0x3be513b4	0.006990874
46	0x3d63ca95	0.05561312
47	0xbc48e099	-0.0122605795
48	0xbcf69db8	-0.030104503
49	0xbd350596	-0.04419478
50	0x3d5ec4f6	0.054387055
51	0xbd556a8c	-0.052103564
52	0xbd0bfce0	-0.034176707
53	0xbcbaecd6	-0.02281801
54	0x3c993f60	0.018706977
55	0x3d1930ae	0.03739994
56	0x3cc7f106	0.024406921
57	0x3b60afb3	0.0034284412
58	0x3d5322ac	0.051546738
59	0x3d0cd56e	0.03438323
60	0xbcd7c6d4	-0.026339926
61	0xbabfa70b	-0.0014621926
62	0x3d40efdf	0.04710376
63	0xbd0802ca	-0.033205785
64	0x3a2eef82	0.00066732627
65	0xbbd738cf	-0.0065680514
66	0xbd5b4fc3	-0.053542864
67	0x3d12432f	0.035708603
68	0x3cf150c0	0.02945745
69	0x3cf001d8	0.029297754
70	0xbce8133a	-0.02832948
71	0x3d584f69	0.052810106
72	0xbd0c551f	-0.034260865
73	0xbcee0bc7	-0.02905835
74	0xbd4dc905	-0.050240535
75	0x3d486381	0.04892302
76	0x3cec1b70	0.028821677
77	0xbc6ee464	-0.01458082
78	0xbd3dafcf	-0.046310242
79	0x3c07d7b0	0.00829117
80	0xbd580f02	-0.052748688
81	0x3d29c6a0	0.04144919
82	0xbd237346	-0.039904855
83	0x3c9d195d	0.019177133
84	0x3b1bd114	0.0023775743
85	0x3d3a225e	0.04544293
86	0xbcc713c0	-0.02430141
87	0xbbb57299	-0.0055373427
88	0xbd2e8637	-0.042608466
89	0xbcd94cdb	-0.026525905
90	0x3d5d4087	0.054016616
91	0x3d4e425c	0.050356254
92	0x3cb4a924	0.022053309
93	0xbd3d123f	-0.04615998
94	0x3cedf050	0.029045254
95	0xbd614fde	-0.055007808
96	0xbd1d399a	-0.03838501
97	0xbd435120	-0.04768479
98	0xbca4a754	-0.02009932
99	0xbca6b664	-0.020350643
100	0xbd293b53	-0.04131634
101	0xbd0fb687	-0.03508618
102	0xbcce7d12	-0.025206123
103	0xbcccc88f	-0.024997978
104	0x3cc9c568	0.024630263
105	0x3d2b3e97	0.041807737
106	0x3c3d2cbd	0.011546311
107	0x3c096681	0.008386255
108	0x3d374493	0.04474313
109	0xbbea57de	-0.007151588
110	0xbd0cf873	-0.034416627
111	0xbd3b51a7	-0.045732167
112	0xbd26b003	-0.0406952
113	0x3c660e52	0.0140415
114	0x3d32b170	0.04362625
115	0xbbd47ef8	-0.0064848624
116	0xbc0cce03	-0.008594039
117	0x3d42cb53	0.047557186
118	0xbce3b1eb	-0.027794799
119	0x3d32a642	0.043615587
120	0xbd1bf7f9	-0.038078282
121	0x3d451d90	0.048123896
122	0xbd61eec7	-0.055159356
123	0xbd208c95	-0.03919657
124	0x3cb6f9b4	0.022335865
125	0x3d05f26f	0.032701906
126	0xbcbd7c0f	-0.023130445
127	0xbcc01e0e	-0.023451831

enc.7.weight f4 [128]
0	0x3f797324	0.97441316
1	0x3f87c806	1.0607917
2	0x3f7c0afc	0.9845426
3	0x3f7306c1	0.9493218
4	0x3f6b4304	0.9189913
5	0x3f783b08	0.96965075
6	0x3f9e38da	1.23611
7	0x3f927025	1.1440474
8	0x3f6e678d	0.93126756
9	0x3f6b677a	0.9195477
10	0x3f89eb63	1.0774959
11	0x3f6e582b	0.93103284
12	0x3f85ef36	1.0463626
13	0x3f932b8e	1.1497667
14	0x3f6b5cc7	0.9193844
15	0x3f66e380	0.9019089
16	0x3f79c9d6	0.975736
17	0x3f76e758	0.9644675
18	0x3f6606bd	0.8985403
19	0x3f71c078	0.9443431
20	0x3f7dfd06	0.9921421
21	0x3f96ec82	1.1790926
22	0x3f85a1b4	1.0439973
23	0x3f916207	1.135804
24	0x3f791a79	0.9730602
25	0x3fa091c6	1.2544487
26	0x3f86c862	1.0529902
27	0x3f7b80a9	0.98243195
28	0x3f8bfbb9	1.0936195
29	0x3f693ecf	0.91111463
30	0x3f8a2bb0	1.0794582
31	0x3f6e3c3e	0.9306067
32	0x3f8785e2	1.0587733
33	0x3f75fc2d	0.96087915
34	0x3f72d70a	0.94859374
35	0x3f88cab2	1.0686858
36	0x3f85c745	1.0451437
37	0x3f607c2f	0.8768949
38	0x3f663c38	0.89935637
39	0x3f8085f4	1.0040879
40	0x3f6b6f0d	0.91966325
41	0x3f702a33	0.9381439
42	0x3f6bb02a	0.9206568
43	0x3f79393c	0.9735296
44	0x3f8c62b3	1.0967621
45	0x3f7d88ed	0.9903706
46	0x3f7434f6	0.9539331
47	0x3f82b3eb	1.0211157
48	0x3f717ae4	0.9432814
49	0x3f71415c	0.94240355
50	0x3f6f002a	0.93359625
51	0x3f5ec3c8	0.8701749
52	0x3f668aa6	0.9005531
53	0x3f69dd20	0.91353035
54	0x3f95c51f	1.1700782
55	0x3f775251	0.9660998
56	0x3f82cff2	1.021971
57	0x3f856481	1.0421296
58	0x3f883cd0	1.0643559
59	0x3f711602	0.94174206
60	0x3f7a39cc	0.9774444
61	0x3f7cc0ad	0.987315
62	0x3f6bfd99	0.92183834
63	0x3f84a454	1.0362649
64	0x3f6bb265	0.92069083
65	0x3f6ee164	0.9331267
66	0x3f6c506d	0.9231022
67	0x3f86ccee	1.053129
68	0x3f8c79eb	1.0974706
69	0x3f68c638	0.9092746
70	0x3f6a3d64	0.91499925
71	0x3f6fcea5	0.9367469
72	0x3f6dcc69	0.9289003
73	0x3f73ff9d	0.9531191
74	0x3f89699a	1.0735352
75	0x3f906c31	1.1283017
76	0x3f690826	0.9102806
77	0x3f7d13e6	0.9885849
78	0x3f823383	1.017197
79	0x3f6c0708	0.9219823
80	0x3f8c7be8	1.0975313
81	0x3f623ce4	0.8837416
82	0x3f8124fa	1.0089409
83	0x3f80606a	1.0029423
84	0x3f8e9a91	1.114092
85	0x3f6d2443	0.92633456
86	0x3f8331a1	1.024952
87	0x3f70ed7a	0.9411236
88	0x3f6d8af2	0.9279014
89	0x3f949cc2	1.1610339
90	0x3f615d7d	0.88033277
91	0x3f867033	1.050299
92	0x3f5dbc80	0.86615753
93	0x3f6af339	0.9177738
94	0x3f6dcefe	0.9289397
95	0x3f7bd396	0.9836973
96	0x3f856de8	1.0424166
97	0x3f8fd89e	1.1237981
98	0x3f6addb3	0.91744536
99	0x3f6cf8ad	0.9256695
100	0x3f89ee6f	1.0775889
101	0x3f84b714	1.0368371
102	0x3f82c35b	1.0215868
103	0x3f532f15	0.82493716
104	0x3f743e84	0.9540789
105	0x3f804d96	1.0023677
106	0x3f771413	0.96515006
107	0x3f686bcf	0.907895
108	0x3f6a2cfa	0.9147488
109	0x3f96a9f5	1.1770617
110	0x3f5f3ee9	0.8720537
111	0x3f6ff538	0.9373355
112	0x3f8ce8e1	1.1008569
113	0x3f8093a3	1.0045055
114	0x3f8d0e2e	1.1019952
115	0x3f898094	1.0742364
116	0x3f741c3d	0.9535559
117	0x3f740bee	0.95330703
118	0x3f82bd54	1.0214028
119	0x3f74f3f3	0.95684737
120	0x3f678740	0.9044075
121	0x3f8ed7cf	1.115961
122	0x3f73a143	0.9516794
123	0x3f705d52	0.93892395
124	0x3f637d8b	0.8886344
125	0x3f5974aa	0.8494364
126	0x3f69f7c1	0.9139367
127	0x3f71cf7f	0.9445724

enc.7.bias f4 [128]
0	0x3d8f7b6e	0.07005964
1	0x3ea3a4b9	0.3196161
2	0x3e18dd03	0.1492806
3	0x3d07a386	0.033114932
4	0x3d838bc6	0.06423144
5	0x3d3f5fef	0.04672235
6	0x3ea540dd	0.3227605
7	0x3eaa62ac	0.33278406
8	0x3df7e6a9	0.12104542
9	0x3d88672c	0.066603035
10	0x3e2168d7	0.1576265
11	0x3c7c7696	0.0154091325
12	0x3e4c4409	0.19947828
13	0x3eb8ea5b	0.361163
14	0xbc4676e1	-0.012113304
15	0xbc99da13	-0.018780744
16	0xbd821715	-0.06352059
17	0x3cb3055f	0.021853147
18	0x3d19f1b1	0.03758401
19	0x3d9b8ad5	0.075948395
20	0x3e0a3962	0.13498452
21	0x3e8325f2	0.25614887
22	0x3e0eb8a7	0.13937627
23	0x3e956eb4	0.29186022
24	0x3d52768e	0.051382594
25	0x3ec9ac07	0.3938906
26	0x3e406c02	0.18791202
27	0x3e009ff4	0.12561017
28	0x3e613e1e	0.21996352
29	0x3bd91aec	0.006625524
30	0x3e5846d2	0.21120766
31	0x3d856d5b	0.065149985
32	0x3df270f0	0.11837947
33	0x3dcf27cd	0.10115013
34	0xbc9daadd	-0.019246513
35	0x3e2fa5d7	0.17153107
36	0x3e270a3c	0.16312498
37	0x3dc94f02	0.09829523
38	0x3d282c88	0.041058093
39	0x3dce3fb4	0.10070744
40	0x3d2d781e	0.04235088
41	0x3d37f2b3	0.04490919
42	0x3ad01a01	0.001587689
43	0xbc259680	-0.010106683
44	0x3e2aa68d	0.16665097
45	0x3d1ea7b3	0.03873415
46	0x3d458d3c	0.048230395
47	0x3dc8985a	0.09794684
48	0x3daf12ff	0.08548545
49	0x3b93db61	0.004512236
50	0x3d9b6abb	0.075887166
51	0x3d5eed3a	0.054425456
52	0x3cb7cb38	0.02243577
53	0x3d618468	0.055057913
54	0x3e855a85	0.26045623
55	0x3d2fc1bd	0.042909373
56	0x3de8fd09	0.113763876
57	0x3e2d2aa2	0.16910794
58	0x3e5562b9	0.20838441
59	0x3d83be82	0.06432821
60	0x3da19897	0.07890432
61	0x3de98aa9	0.114034005
62	0x3905f288	0.00012774218
63	0x3e1989a1	0.14993908
64	0x3d3e4747	0.046454694
65	0x3ce3e940	0.027821183
66	0x3d75dff7	0.060028043
67	0x3e28899a	0.16458741
68	0x3ea82721	0.32842353
69	0x3d4a9f06	0.049468063
70	0x3c442773	0.011972296
71	0x3ddcda58	0.10783833
72	0x3d586ab7	0.052836146
73	0x3daed346	0.08536391
74	0x3e7d5351	0.24738814
75	0x3e8bec99	0.27328947
76	0x3c029e1e	0.007972268
77	0x3df9ea37	0.12202876
78	0x3dcf2dbd	0.10116146
79	0x3d101f70	0.03518623
80	0x3e713e4e	0.23558924
81	0x3db81389	0.08988101
82	0x3e3771fb	0.17914574
83	0x3db2581f	0.08708214
84	0x3e8573cc	0.26064909
85	0x3d8eea13	0.0697824
86	0x3e2f733b	0.171338
87	0x3d9549bc	0.07289454
88	0x3d076ad5	0.033060867
89	0x3e897908	0.26850152
90	0xbbb805eb	-0.00561594
91	0x3e5c52b5	0.21515925
92	0x3d5aed59	0.05344901
93	0x3cd5259e	0.026018914
94	0x3d2c65ab	0.042089146
95	0x3d9e1ead	0.07720695
96	0x3e6c3c80	0.23069954
97	0x3e8c60fe	0.2741775
98	0x3d366100	0.0445261
99	0x3c5f66c7	0.013635344
100	0x3e4f1faa	0.20226923
101	0x3e4f3522	0.20235112
102	0x3e4a34ff	0.19746779
103	0x3e0d7cb5	0.13817103
104	0x3d8a3065	0.06747512
105	0x3dc20ca8	0.0947507
106	0x3daabe77	0.083371095
107	0x3dc69f2e	0.0969833
108	0xbbcfb73a	-0.006338981
109	0x3ea55100	0.3228836
110	0x3d6cd1dd	0.05781733
111	0x3db02d40	0.08602381
112	0x3e86e1fe	0.26344293
113	0x3e087429	0.13325562
114	0x3e8befd3	0.2733141
115	0x3e4addda	0.19811192
116	0x3c859fd3	0.016311562
117	0x3a920e76	0.0011143226
118	0x3de8f15c	0.11374161
119	0x3d887016	0.06662004
120	0x3d7b8733	0.061408233
121	0x3e859929	0.26093414
122	0x3d5a0d9a	0.053235628
123	0x3e43c5cd	0.19118424
124	0x3d6f62ca	0.058443822
125	0x3cd8fa89	0.026486652
126	0x3d92ceae	0.07168327
127	0x3da63085	0.08114723

enc.7.running_mean f4 [128]
0	0x3f808120	1.0039406
1	0xbd0fb4f6	-0.035084687
2	0xbecae6dc	-0.39629257
3	0xbda1c12b	-0.07898172
4	0xbf5d77a5	-0.8651069
5	0xbdf2b54f	-0.11850988
6	0x3db96b04	0.09053615
7	0xbe04aaa3	-0.12955718
8	0xbed5017b	-0.41602692
9	0xbec1ef4d	-0.37877885
10	0xbfc18345	-1.5118185
11	0x3ea10c2b	0.31454596
12	0x3e3bfeca	0.18358913
13	0x3d00bfb0	0.031432807
14	0x3e56c922	0.20975164
15	0x3eb4a16b	0.35279402
16	0xbf194a5b	-0.5987908
17	0xbda47fcb	-0.08032187
18	0xbf43a120	-0.7641773
19	0xbf41e1e8	-0.7573533
20	0x3f5575c8	0.83382845
21	0xbed98b2c	-0.42488992
22	0x3ebe480c	0.37164342
23	0x3f579328	0.8420892
24	0xbf9d192c	-1.2273307
25	0x3f0ee535	0.5581849
26	0xbf4c6ae1	-0.79850584
27	0xbf2ad53f	-0.6673164
28	0xbeae16a3	-0.34001645
29	0xbcd02291	-0.025407108
30	0x3d6e6a10	0.058206618
31	0xbe99f50c	-0.30069768
32	0xbec4ef40	-0.38463783
33	0x3f2cf144	0.6755564
34	0xbf71452a	-0.9424616
35	0x3e3e6d8d	0.18596478
36	0xbf02421a	-0.5088211
37	0xbe084656	-0.13308081
38	0xbd4d603a	-0.050140597
39	0xbebaab9e	-0.3645906
40	0xbef76b34	-0.48323977
41	0x3ef7bff5	0.4838864
42	0xbe49b232	-0.19696882
43	0x3e94a514	0.29032195
44	0xbeef361c	-0.4672097
45	0xbfc5af7a	-1.5444176
46	0xbe208efd	-0.15679546
47	0xbefcd41e	-0.49380583
48	0x3ee824b9	0.45340517
49	0x3fc3c777	1.5295247
50	0x3dfd845d	0.12378762
51	0xbf09bc92	-0.5380336
52	0x3f391db2	0.72310936
53	0xbf020a11	-0.5079661
54	0x3decae39	0.11556668
55	0xbdeec8c7	-0.11659389
56	0xbe23183e	-0.15927216
57	0x3f9188cc	1.1369872
58	0x3f08f0f0	0.5349264
59	0xbd2b4723	-0.041815888
60	0x3f5d0684	0.8633807
61	0xbd3b212f	-0.045685943
62	0x3ef17643	0.4716054
63	0x3e275964	0.16342694
64	0x3dfc0e89	0.1230746
65	0xbdb3afad	-0.08773742
66	0xbf7b463c	-0.98154044
67	0xbe3de8ea	-0.18545881
68	0xbef98663	-0.4873534
69	0xbd114bd3	-0.035472702
70	0xbf33b316	-0.7019514
71	0x3f1cf83d	0.6131628
72	0x3e321964	0.17392498
73	0x3e055c8a	0.13023582
74	0x3f1aa390	0.60405827
75	0x3c6746d5	0.014116009
76	0xbe88a337	-0.26687023
77	0x3f1fcf8d	0.6242607
78	0x3f3b6bd8	0.7321143
79	0xbf5a7b9d	-0.8534487
80	0xbe6f1303	-0.23347096
81	0xbf1ae728	-0.60508966
82	0xbf16d0ea	-0.5891253
83	0x3e8e89b5	0.27839437
84	0xbf4f0aa0	-0.8087559
85	0x3f0e9fd3	0.5571262
86	0xbf3eaff9	-0.7448726
87	0xbe864649	-0.26225498
88	0xbdd1fbb9	-0.102530904
89	0xbf7efaa7	-0.99601215
90	0x3f1da279	0.6157604
91	0x3e8be0f1	0.27320054
92	0x3f085b3e	0.53264225
93	0x3e910e53	0.2833124
94	0x3ef981ce	0.48731846
95	0xbeb52493	-0.35379466
96	0xbf1c6e99	-0.6110626
97	0x3f2ba7bf	0.67052835
98	0x3f2368f8	0.63832045
99	0x3f384467	0.71979374
100	0x3e791811	0.24325587
101	0x3ee7278d	0.45147362
102	0xbeb806e8	-0.3594277
103	0x3eed8ad8	0.46394992
104	0x3db19ad1	0.08672107
105	0x3fa509d1	1.2893621
106	0xbdddfb32	-0.10838927
107	0xbeeb199a	-0.4591797
108	0xbf9846e3	-1.1896633
109	0xbd67a07e	-0.05654954
110	0x3eb3e2cd	0.35133973
111	0x3f323ebf	0.6962699
112	0x3e2bc056	0.16772589
113	0x3ef84981	0.4849358
114	0x3ec9d5a2	0.394208
115	0xbe0fe1c2	-0.14050964
116	0x3f464f0f	0.77464384
117	0xbed9de18	-0.42552257
118	0xbeab0528	-0.3340237
119	0x3f936463	1.151501
120	0x3f436f4d	0.76341707
121	0xbeebb879	-0.4603918
122	0xbe97e808	-0.29669213
123	0x3e87c75b	0.26519284
124	0x3dc91052	0.09817566
125	0xbfad4ad0	-1.3538456
126	0x3ce77d4f	0.028257994
127	0x3f06f2bc	0.52714133

enc.7.running_var f4 [128]
0	0x3fd815bb	1.6881632
1	0x3f986f2d	1.1908928
2	0x3f980add	1.1878315
3	0x3f5a35b9	0.85238224
4	0x3fca7b64	1.5818906
5	0x3f4d44cf	0.8018312
6	0x3f849a7a	1.0359643
7	0x3fa2e12c	1.2724967
8	0x3f46eb05	0.7770236
9	0x3f41f766	0.75768125
10	0x3f9e03c7	1.2344903
11	0x4024cfaf	2.575176
12	0x3f87bb4a	1.0604031
13	0x3f6e4274	0.9307015
14	0x3fdadee8	1.7099276
15	0x3fc65fcd	1.5497986
16	0x3f242e9a	0.6413361
17	0x3f3cf789	0.7381521
18	0x3ff8175d	1.938213
19	0x3fddf475	1.7340227
20	0x3f81e051	1.0146581
21	0x3f84c44c	1.0372405
22	0x3f841210	1.0318012
23	0x3f84bf1b	1.0370821
24	0x3fd81fdd	1.6884724
25	0x3f8119bd	1.008598
26	0x3fa34d19	1.2757903
27	0x3fc27181	1.5190889
28	0x3f9a2025	1.204106
29	0x3fda4d54	1.7054849
30	0x3f8a19a2	1.0789073
31	0x3fefe7e3	1.8742641
32	0x3fad0761	1.3517877
33	0x3f9b1bae	1.2117822
34	0x3fe8f2a6	1.819905
35	0x3f5e9b37	0.8695559
36	0x3f9150b7	1.1352757
37	0x3f96b5ff	1.1774291
38	0x40076ad2	2.1158948
39	0x3fda84f2	1.7071822
40	0x3fa73449	1.3062831
41	0x3fb3b613	1.403994
42	0x4014d1e0	2.3253098
43	0x3f84c94b	1.037393
44	0x3f8526ac	1.0402427
45	0x3f915d94	1.1356683
46	0x3fd980ea	1.6992466
47	0x3fa09a90	1.2547169
48	0x40197593	2.3978012
49	0x400e4946	2.2232223
50	0x3f855127	1.0415391
51	0x3f9a5b76	1.2059162
52	0x3f8c3402	1.0953372
53	0x3f6b17d7	0.9183325
54	0x3f8e60fb	1.1123346
55	0x3fcc722e	1.5972345
56	0x3fb21ca9	1.3914996
57	0x3f7443cf	0.9541597
58	0x3f71be97	0.9443144
59	0x40004890	2.0044289
60	0x3f965a76	1.1746356
61	0x3fab0102	1.3359683
62	0x3feb10f6	1.8364551
63	0x3fbbeed8	1.4682264
64	0x3f8d2a5e	1.1028554
65	0x400b6320	2.177925
66	0x3f482548	0.78181887
67	0x3f830986	1.0237281
68	0x3f8f15cc	1.1178527
69	0x400968b0	2.1470146
70	0x3ed95df5	0.42454496
71	0x3f80d67b	1.0065454
72	0x401e4978	2.4732342
73	0x4007fc1b	2.1247623
74	0x3fae8eb8	1.3637304
75	0x3fa19fc5	1.2626883
76	0x3fe98de6	1.8246429
77	0x3f3e8e7c	0.74436164
78	0x3ee40878	0.4453771
79	0x40110deb	2.2664745
80	0x3fc204b9	1.5157691
81	0x3ecedb42	0.40401655
82	0x3f8ed649	1.1159145
83	0x3f593d14	0.8485882
84	0x3fab3aa7	1.3377274
85	0x3ff8518d	1.9399887
86	0x3fc65be9	1.5496799
87	0x400207b0	2.0317192
88	0x4005d782	2.0912786
89	0x3fa402ad	1.2813317
90	0x3fab0b29	1.3362781
91	0x3f9d8dc9	1.2308894
92	0x3fedc02e	1.8574274
93	0x3fb23307	1.3921822
94	0x3fee00ad	1.8593956
95	0x3ffcfb5f	1.9764212
96	0x3f8b0c61	1.0863153
97	0x3f8c8247	1.0977257
98	0x3ff5521b	1.9165682
99	0x4007ab3f	2.119827
100	0x3f9d2d60	1.2279472
101	0x4005a047	2.0879076
102	0x3f8b25eb	1.0870947
103	0x3f109c7d	0.5648878
104	0x3fecbcfc	1.8495173
105	0x3fdf392f	1.7439326
106	0x3f261662	0.64877903
107	0x3fb5597e	1.4167936
108	0x3f80f672	1.0075209
109	0x3fb122d2	1.3838751
110	0x3f6bea42	0.92154324
111	0x3f89bdad	1.076101
112	0x3f95ff99	1.1718627
113	0x3f708f94	0.9396908
114	0x3f820538	1.0157843
115	0x3fa4acee	1.2865274
116	0x3f9f9dfb	1.2470087
117	0x3f9f02c9	1.2422725
118	0x3fbca68b	1.4738325
119	0x40065615	2.099004
120	0x3fba69e7	1.4563569
121	0x3f93e2b8	1.1553564
122	0x3f7e2d6e	0.9928807
123	0x3eb5a70b	0.35479006
124	0x3f3d2b31	0.7389403
125	0x3f85bd79	1.0448447
126	0x3fd41050	1.6567478
127	0x3f7ccb50	0.9874773
